trained_generator.pth (torch, 980018 bytes, 7 tensors)

label_emb.weight f4 [10, 10]
00000000: c5c2 d6be 2d85 51bf ab58 17bf 2a7e 60bd
00000010: 52ac 843e 97cb 7bbf c36d 823d 5259 123f
00000020: 6770 b23f dfb7 843f 2fde 0540 8f6c 15be
00000030: 58ee 993f 57fc 22be bbd9 ccbe 5d0a 20bf
00000040: d33d bf3e a801 88be 5381 1340 22d2 16bf
00000050: 012b 683f 5b54 6b3e 7a76 92bf dad2 363f
00000060: 6f84 dfbd 07b9 513f 7f92 333f aa48 0c40
00000070: 7963 7e3f 3db6 113f eaed 2fbf b92c bc3f
00000080: 2b70 483f b3df c53f 8282 ef3f 6c05 29be
00000090: 9106 9cbf 5e3d 3cbf 5872 62bf ee55 f63c
000000a0: c964 0740 64a6 afbf 3b25 64be f408 f33f
000000b0: 302d 003f 0816 4e3e d59f 9abe a2ac 0d3f
000000c0: ff2d a4bf 242b cc3f a9aa 123f 5d5c 743e
000000d0: cb36 6abe 0ac7 433f 40dd a53f 2cd0 353f
000000e0: a623 2bc0 6744 17bf 8e45 19bf 4768 fc3e
000000f0: a443 cc3f 3f19 babe 15cc aabf 2b1e 5dbe
00000100: e6ff 293b 7b5e 993f c7fa 84bf 9eab 72bf
00000110: f136 e33f 6486 66bf 6c18 afbe 47d4 0f3f
00000120: b308 75be 980a b93d 08f9 433d 97e9 80bf
00000130: 5fd6 2f3f 8201 d0bc 28ad 243e ca12 96bc
00000140: 3512 aa3f 9fe2 68bf d44f 3cbf da4d f8bf
00000150: 7024 f53e 7a03 283e d6d2 8ebf 49cf d83f
00000160: d5e9 8cbf 0bbf a2be 2bcd 983f 0c0c a4bf
00000170: 7048 9a3f 4206 7ebf 2c1b 45bf f377 b53f
00000180: 925f d43f 529e 40bf b1a1 37c0 6c40 39bf
-0.41945472 -0.81843835 -0.5911967 -0.05480782 0.2591272 -0.9835753 0.06368592 0.5716754
1.3940552 1.0368613 2.091686 -0.14592193 1.2025862 -0.15916573 -0.40009865 -0.62515813
0.37351856 -0.26563764 2.3047683 -0.5891439 0.9069062 0.22981398 -1.1442406 0.71415484
-0.109139316 0.81922954 0.7014541 2.191935 0.99370533 0.569187 -0.68722403 1.4701148
0.78296155 1.5458893 1.8711703 -0.16505975 -1.2189504 -0.7353114 -0.88455725 0.030070271
2.1155264 -1.3722653 -0.22279827 1.8987107 0.5006895 0.20125592 -0.30200067 0.5534154
-1.2826537 1.5950665 0.57291657 0.23863359 -0.22872464 0.76475585 1.2958145 0.7102077
-2.6740508 -0.5908875 -0.5987176 0.49298307 1.5958142 -0.36347386 -1.3343531 -0.2159354
0.002593988 1.1981958 -1.0389031 -0.9479312 1.7751142 -0.90048814 -0.3419832 0.56183285
-0.239291 0.09035224 0.047844917 -1.0071286 0.6868648 -0.025391344 0.16081679 -0.018319506
1.3286806 -0.90970796 -0.7355931 -1.9398758 0.47879362 0.16407576 -1.1158092 1.6938258
-1.100886 -0.3178638 1.1937612 -1.2816176 1.2053356 -0.992283 -0.76994586 1.4177231
1.6591666 -0.7524158 -2.8692439 -0.72363925

model.0.weight f4 [128, 74]
00000000: 730a 4cbd 0c98 acbc 42af 80bd 5df3 8cbd
00000010: 7862 b4bd d624 c63c f77d e7bb 628e b93d
00000020: 59cb e3bc 7ee8 8bbd 076b 3cbd 884d 08bc
00000030: 6787 04bd 76e8 aa3c 4fac 97bd 7a40 6fbd
00000040: 7b31 b23d bbb9 05b7 4c80 533b 557b 663d
00000050: b2c0 06bd ef10 65bd e48d bbbd 898c 673d
00000060: f0e9 38bc c216 583c 0b3b f03c 6880 88bc
00000070: e8b3 db3c 7c7c bd3c 4cdf ac3c 7559 5f3d
00000080: f6c3 8b3c e17e c8bc e89b b3bd a603 17bd
00000090: 214e ac3d 46d1 403d 4f07 173d f873 bcbb
000000a0: cfa4 983d ef30 81bd 4dda 08bd ac2c 0d3d
000000b0: d7be 633d 9a93 613d 4285 523c 9182 cc3c
000000c0: ca0c 86bd 1e4f 80bc 0b87 b5bd a809 603c
000000d0: 415a 30bd c260 983d 5722 8c3d ca10 77bd
000000e0: 8d65 cabc 8b99 52bd a229 46bd 23e8 a23d
000000f0: 5722 92bc 09af 0b3d 3880 d9ba b1cd ba3b
00000100: 4334 49bd e565 8dbd d330 16bc e057 353d
00000110: fa42 bfbd 2771 b23c 627c 53bd 38e3 323d
00000120: dc82 893d fdc6 b73d 12b7 183d da15 43bd
00000130: 51ab e03d 31bf 033e dbbb 903d 92ff 1bbd
00000140: 0136 803d 6c66 383d 857a d7bd 4d0e 4ebc
00000150: b08d b63d e779 373b d177 83bd 9071 44bd
00000160: 4b72 d3bd ad0e 90bd 809b ecbd 1ec6 eebc
00000170: ac1c a1bd afc7 333d 9ca4 d4bc 9d0b de3c
00000180: 9c04 173d 6105 4a3d a19b fabd 916a 333d
00000190: ec9c b2bd 5bea c53d 1719 5e3c 2826 96bc
000001a0: 2603 d5bd 97b6 c83c 3e60 a53d 8124 3c3d
000001b0: 6d5d b33d 1f9e 7c3d 39e6 f0bd 437d 753d
000001c0: ae39 8a3d 8d0e c7bd e6ad a3ba 6e0b e9bd
000001d0: f33f 7cbd a96f babd 0800 c43c c1be 6abd
000001e0: 683d bdbd 164f 1b3c 20de eb3d 427a ec3c
000001f0: b72b 1fbd 971e cdbd d048 5f3b 69df 0c3d
00000200: ca6b 053d 9c46 43bd 7a3e e83c cd4f 2cbd
00000210: 0a23 e7bd 7613 f5bd 0469 383c 4f66 fbbd
00000220: fdb0 f13d 3012 e0bd d5c3 5ebc 3384 08be
00000230: 56c9 75bd 3370 b33b 5294 bcbb eaba 063d
00000240: de74 00bd ff1e 74bc fbd0 d9bd 4868 1c3d
00000250: f152 8e3c dd6f 6b3d 348a ec3b 74a6 37bd
00000260: affe 893d 2536 8a3d e8fc 9a3c f24a e93c
00000270: 7247 593d b489 8f3c 99e1 5fbb c821 21bd
00000280: 958d 09bc 0c35 263c 517f 953d aefc 613d
00000290: c09b 333d 3ceb 823d 12ec 013c 40e6 42bc
000002a0: 833b 9d3d f3f0 b3bc c896 89bc 2d25 63bd
000002b0: 2ca0 903c 9519 513d c12a 5c3d 85a9 57bc
000002c0: 7909 34bc 7da3 d2bc c503 783d ff32 2b3d
000002d0: d7c0 063d 0483 353d 9692 283d 8276 3e3d
000002e0: 59b6 223d 9072 723d 2a04 b83c 062a ee3c
000002f0: 427d ce3b 016d 533d 2aa7 93bd 9976 0c3d
00000300: 2cc8 f4bc 646c 893d 6f48 95bd a09f 3bbd
00000310: eac1 4cbc 7bf0 5bbd fa7f 9cbc de53 f6bb
00000320: ab58 82bd 391f 763b 99b4 b73b e395 b23b
00000330: 520d e4bc ba2d 74bd 38c6 39bd 9ff9 01bd
00000340: b7e5 7dbd 23b5 013b 2912 6d39 8eea ea3c
00000350: ac11 373d cd55 973d cec8 d4ba 405a 0bbd
00000360: 0aa7 00be 84ef 98bd 5167 98bc fb56 a5bd
00000370: 9624 91bc 696d c9bb 7a7f c3ba a741 49bd
00000380: 4ddd 0bbd 4ae1 b6bc 059a ea3c 58e8 fa3c
00000390: 8dda 40bd 69d3 3f3b babf 183b e5e9 f2bb
000003a0: 2596 cb3c dee6 27bd 1ebc 6a3c 938d 5abc
000003b0: 45ec 273d c04f 3cbd 0091 bdbb 4caf 883a
000003c0: 1f61 3cb8 6282 9d3b 2add 6bbb ce1c 58bc
000003d0: e634 8cbc 0387 043c 46f6 f1bb a20f 153d
000003e0: 53d7 86bc 6ab3 aa3c 957e f9bc aa04 a2bc
000003f0: a6df 86bb 304f 34bc a009 503c 24e0 8dbb
-0.049814653 -0.021068595 -0.06283428 -0.06882355 -0.08807844 0.024187487 -0.0070645767 0.090603605
-0.027806925 -0.06831454 -0.046000507 -0.008319266 -0.032355692 0.0208628 -0.07405912 -0.0584111
0.08700844 -7.9706615e-06 0.0032272516 0.056269962 -0.032898612 -0.055924352 -0.09157923 0.05653051
-0.011286244 0.01318902 0.029325029 -0.016662791 0.026819184 0.023130648 0.02110257 0.054528672
0.017061215 -0.024474563 -0.08769971 -0.036868714 0.084133394 0.04707458 0.036872204 -0.0057511292
0.0745331 -0.063081615 -0.033411313 0.03446643 0.05560192 0.055072404 0.012849154 0.024964603
-0.06545408 -0.015662726 -0.08863648 0.013674177 -0.043054823 0.0744033 0.06842487 -0.060318746
-0.024706626 -0.05141596 -0.048379548 0.07954433 -0.01783864 0.034102473 -0.0016593998 0.00570079
-0.049122106 -0.069042005 -0.009166914 0.044273257 -0.09338947 0.02178247 -0.051632293 0.043673724
0.067144126 0.08973501 0.037283964 -0.04762826 0.10970176 0.12865902 0.070670806 -0.038085528
0.062603004 0.045019552 -0.105214156 -0.012576652 0.089137435 0.0027996243 -0.064193375 -0.047959864
-0.10324534 -0.07034049 -0.11553097 -0.029147204 -0.07866797 0.043891605 -0.025957398 0.027105147
0.03686963 0.049321536 -0.12236715 0.0438028 -0.08721337 0.096638404 0.013555787 -0.018328741
-0.10400991 0.024501128 0.08074997 0.04593325 0.08758054 0.061674234 -0.117626615 0.059933912
0.06749283 -0.09719572 -0.0012487739 -0.11379133 -0.061584424 -0.09103329 0.023925796 -0.057310823
-0.09240228 0.009479305 0.11516976 0.02886689 -0.03886005 -0.100156 0.00340705 0.034392748
0.0325735 -0.04767476 0.028350104 -0.04206829 -0.1128598 -0.119666025 0.011255506 -0.12275373
0.11801336 -0.10940969 -0.013596495 -0.1333168 -0.060006462 0.0054760217 -0.005754986 0.0328931
-0.031361453 -0.014899968 -0.10635563 0.038185388 0.017373534 0.057479728 0.0072186235 -0.044836476
0.0673803 0.067486085 0.018919423 0.02847812 0.05304665 0.017521717 -0.0034161566 -0.039338857
-0.008395572 0.010144483 0.07299674 0.055172615 0.043849707 0.06392524 0.007929819 -0.011895716
0.076773666 -0.02196548 -0.01679553 -0.055455375 0.0176545 0.051049788 0.05375171 -0.013162975
-0.010988587 -0.025712723 0.06055047 0.04179668 0.03289875 0.0443144 0.04115542 0.046499737
0.03972468 0.059191287 0.022462923 0.029072773 0.006301553 0.051617626 -0.072096184 0.03429279
-0.029880606 0.06710127 -0.07289206 -0.045806527 -0.012497405 -0.053696137 -0.019103993 -0.007517322
-0.06364568 0.0037555231 0.0056062457 0.005449997 -0.027838383 -0.05961392 -0.04535505 -0.031732198
-0.06198665 0.0019791804 0.00022608846 0.028676298 0.044694588 0.07389412 -0.0016234161 -0.034021616
-0.1256372 -0.07467559 -0.018603953 -0.08073231 -0.01771764 -0.006147076 -0.001491531 -0.049134877
-0.034146596 -0.022324223 0.028637895 0.030628368 -0.047083426 0.0029270297 0.0023307637 -0.0074131363
0.024851868 -0.040991656 0.014327077 -0.013339418 0.04099681 -0.045974493 -0.0057851076 0.0010428219
-4.4913144e-05 0.0048068026 -0.0035989978 -0.013190461 -0.017115068 0.00808883 -0.0073840944 0.03639186
-0.016460096 0.020837504 -0.030455867 -0.019777615 -0.0041160164 -0.011005208 0.012697607 -0.004329698

model.0.bias f4 [128]
00000000: f597 a6bd 8908 9fbd 3b71 b8bd fa44 c93c
00000010: e3b0 833d 0dc0 13be 0b93 e7bb ca24 87bd
00000020: 9c6c 80bd b95c bebd e99b a7bd cce0 dc3c
00000030: 9cd5 08bd f92b 08be 891f 803d 592f 05be
00000040: 8729 01bd b8d5 903d 9119 0b3d 43bf 263c
00000050: 8751 a13d 8879 96bd 80db 183d 9a12 413d
00000060: 34c3 aebc 9d4e 43bd 13f2 83bd 21b4 08be
00000070: e1aa 793b e176 95bd 1515 0fbe 6bab 0fbd
00000080: 56d8 1fbd 60a4 223c a2c0 8e3d 23bb 19bd
00000090: 33d7 a43c 2cf9 afbd d4f8 c9bd dcc2 babd
000000a0: 1b30 a53d 57c3 f6bd 2841 babd 65e8 d4bd
000000b0: 85ca 9b3b da8a 383d f144 9cbc 96df d03c
000000c0: 3dbd 263d 348e e0bd 2b12 45bd c408 1abe
000000d0: 1a31 c53a 6655 c53b 9bc9 97bd b249 a7bd
000000e0: 5aa7 50bd d725 cbbc 5bc3 9bbc f91e fdbc
000000f0: fc64 9f3c ef10 d9bd 5f5c 4fbc 7041 4cbd
00000100: a984 c6bd 5a35 a7bd 71bc 9abd b295 cabc
00000110: 8446 c0bd 18b8 15be 8ccf 99bc f210 d4bd
00000120: 818c d93c fc53 77bd e928 b33d 5be0 c23d
00000130: f44e 473d 48a3 a8bd 422c f9bd 2c28 733d
00000140: 7e1b adbd 8f86 a6bd 7f10 e3bd 0235 dabd
00000150: 8b3d a9bd ec4b 983d 3161 4bbb ccaa 0dbd
00000160: e166 31bd 1bb0 623c 9b30 453d ce8b 5f3c
00000170: 2213 d4bc d8bf 89bc de47 86bc 0060 b0bd
00000180: a126 d1bd 1d8c 10be 9795 f8bd 2f25 9bbd
00000190: 8abe 4fbd 9074 e1bb 871e 683d 4c9c 8abd
000001a0: 32ad 1cbe 5ca9 0abe e5ff 1b3d 79b5 483d
000001b0: 4e59 e2bd 5e26 c1bc 8434 c3bd a5d8 fcbd
000001c0: 7d82 d8bd ca0d e5bd ebb9 44bd ee36 c4bd
000001d0: 52d1 d63b 22df 6dbd 68dd 6bbd 1bee 623d
000001e0: f9f3 8fbc 67ee 8dbc fdfd c7bd e866 6d3d
000001f0: 9a88 cbbd 57f0 313d 2c0b b9bd 3d77 82bd
-0.08134452 -0.077653 -0.09005972 0.024569023 0.06430223 -0.1442873 -0.0070670894 -0.06598814
-0.062707156 -0.09295029 -0.081840344 0.02696266 -0.03340684 -0.13298024 0.06256015 -0.13006343
-0.031533744 0.070720136 0.03395993 0.010177436 0.07876878 -0.07347399 0.037318707 0.04713688
-0.021333314 -0.047682393 -0.06442656 -0.13349964 0.0038096237 -0.07298065 -0.13972886 -0.035075586
-0.039024673 0.009926885 0.069703355 -0.037531983 0.020122146 -0.08592448 -0.09861913 -0.09119198
0.08065816 -0.12048977 -0.09094459 -0.10395888 0.004754367 0.045054294 -0.019075843 0.02549724
0.040707815 -0.10964623 -0.04811303 -0.15042406 0.0015044541 0.006022143 -0.074115 -0.08168353
-0.05094085 -0.024798317 -0.019014051 -0.030898558 0.019457333 -0.10598933 -0.0126563 -0.049867094
-0.09693272 -0.08164473 -0.075554736 -0.024729583 -0.0938845 -0.14621007 -0.018775724 -0.103547946
0.026556255 -0.060382828 0.08748037 0.09515449 0.04865928 -0.082342684 -0.12166645 0.059364483
-0.08452509 -0.08131134 -0.11087131 -0.10654642 -0.082636915 0.07436356 -0.0031033272 -0.034586713
-0.043311004 0.013835932 0.048142057 0.013644172 -0.02588803 -0.016815111 -0.01639169 -0.086120605
-0.10212446 -0.14115949 -0.12137907 -0.075754516 -0.05071882 -0.0068803504 0.05666974 -0.067680925
-0.15300444 -0.13541168 0.038085837 0.04900119 -0.1105219 -0.023577865 -0.09531501 -0.12346009
-0.10571764 -0.11184271 -0.048028868 -0.095807895 0.0065557146 -0.058074124 -0.057584196 0.055402856
-0.01757239 -0.017325593 -0.09765241 0.057959467 -0.09938164 0.043442097 -0.09035334 -0.06370399

model.2.weight f4 [256, 128]
00000000: 528c 893d c5e7 403d c947 9a3d 7dae 5d3b
00000010: 58ab cabc cff8 593d 255a 843d 1778 58bc
00000020: c2c2 a83d a628 88bd c81f 113d 75d9 7dba
00000030: 1e69 a0bd b2b5 90bd 89e4 60bc b678 14bd
00000040: 9492 1dbd d918 a93d 9891 1fbc 1729 94bd
00000050: 528f 373d 54c9 98bd cacb a7bc 10b3 abbd
00000060: d394 be3d 3d60 9b3d 54bb 983d a881 a8bc
00000070: f784 67bd 0573 10bd 7be1 35bd 9f3b 3abd
00000080: f529 c93c 7703 703c ce7a 07bc c041 983c
00000090: 5198 a6bd acda a03d 40d7 1bbd bdc4 a0bd
000000a0: 3442 b0bc 8bd4 e53c a084 a1bd 59a3 3a3d
000000b0: 4826 643d d389 223d c367 89bd ac9c 72bd
000000c0: c580 66bd 6a8a 3e3d a425 b0bd bf7c 823d
000000d0: 3a09 223d c17f 21bd 7c17 e4bc d985 82bd
000000e0: fd84 853d 6748 113c cd9a f3bc 14d1 503d
000000f0: 2900 8d3c 4949 a83d e59a 8d3d 3f3c 27bc
00000100: 9f6e 023d 25fc a83c 1839 843d 08b7 2d3d
00000110: 17ca 3c3c b272 5d3d c8ae 54bd 38f1 75bd
00000120: ac6b a33c 9185 94bd 54d4 89bd 0c94 b03c
00000130: a66c b2bd 5ff8 96bd ab11 513d 45ac 91bd
00000140: 9b48 26bc c0b5 1abd 8f5a 07bc f76b 6b3d
00000150: 41d1 a2bd 7e5f 24bd 2faf 44bd aae3 1d3c
00000160: 27a8 903d d497 8e3d 854e 56bd 13b1 6dbd
00000170: 1f14 38bd 8bd2 aa3c ead8 a63d 631a 2b3d
00000180: effc 473d 8d9b 02bc 5785 23bd 088a 87bd
00000190: d087 7bbd 08a6 a03d 5792 4fbd baf5 9b3d
000001a0: 3e71 a7bc e95f a9bd 71cd ac3c 838c 89bc
000001b0: 94e1 aebd a6f6 d4bb 6e1b 0bbd fcb8 fc3c
000001c0: 7a96 81bd d64b 9d3d 43dc e23c 147e 11bd
000001d0: 58d1 7e3d d0d6 de3c 3460 e3bc ccd3 9f3d
000001e0: f238 963d ad66 70bb 2c52 7fbd 90c9 9abd
000001f0: 54e8 10bd e240 56bd 5788 09bd b52b 45bb
00000200: c485 81bc f1bc 8d3d 8c16 4a3d cab4 923d
00000210: 908a 15bd 34df 333d e247 2a3d 34b4 0d3d
00000220: f5f5 a8ba 4912 be3c 680a 2fba a01b e33c
00000230: a505 b93c 80c3 10bd e7ad 97bd ae0f 21bd
00000240: 0b99 603d 74f5 1a3d 43c0 83bd f97c 5d3c
00000250: 98d8 fabb e82b 95bd 42eb 4b3c 9229 323d
00000260: 8598 4bbd ff81 513d a8f3 08bd 24a0 0dbd
00000270: b705 183c 8f89 6c3d 7b4f 85bd 9dfa 93bc
00000280: d6d5 07bc 1951 e33b 6457 2dbd 46b3 da3c
00000290: d3e1 80bd a052 5e3d 9d76 efbc 4d00 7e3d
000002a0: d7d7 b5bd 4f19 3dbd bc30 703b 325e 303d
000002b0: 0efd aabc 8be9 b33c 99f9 2c3d 6c46 3cbd
000002c0: a9be d43c d117 a8bd e1b5 acbd 077f b0bd
000002d0: cdb3 c6bc 28e2 9bbd e650 a4bc c4dd b5bd
000002e0: 16ce 5d3d efec 7f3d 2381 953d a3b9 733d
000002f0: 0732 413d e1b0 b6bc 267e f6bc 9bdb 913d
00000300: 410f 19bd d877 d8bc 2106 98bd 3983 0bbd
00000310: 4849 41bd a8d6 c4bd 8734 8a3d d620 98bc
00000320: c34d a3bd 238b 0cbd 6605 24bd 9c74 293d
00000330: 57cb 47bc ab2e 69bc 881d aa3c 20d0 babd
00000340: 911d 223d 2927 f83b e986 95bd 0546 463d
00000350: 20ec 8ebd 1817 373d 6023 62bc b80d 8c3d
00000360: d8cc 2a3d 73da c2bd 3c69 0bbd a437 953d
00000370: 8ee3 58bd d96c 8d3d 5929 3c3d dc51 463d
00000380: 76f5 583d 7f34 0ebd b2fd 3b3d da67 40bd
00000390: cb87 67bd 4651 07bd ee2d 9fbd 52b5 183c
000003a0: a132 723d 50cf 8e3d 88ab a5bd 52cb c3bd
000003b0: 7792 90bd 8e6f 21bd 1441 52bd a653 4abd
000003c0: a039 d33c 3822 a2bd c4c2 bcbc e4cc 21bd
000003d0: ccdc 923c e0ea ea3c 4c22 4c3d d0e1 e7bc
000003e0: 7755 bdbd a1ed c2bc b1a7 b5bc a6e9 8dbd
000003f0: afe2 8a3d f7ae f0bb dcf3 763d 6462 ac3a
0.06716217 0.047096033 0.07533223 0.0033825927 -0.024739906 0.053215798 0.06462506 -0.013212225
0.08240272 -0.06648378 0.0354307 -0.00096835877 -0.078325495 -0.07065906 -0.013726362 -0.03624793
-0.038469866 0.082566924 -0.009739302 -0.072344 0.044814415 -0.07460275 -0.020482916 -0.08383763
0.0930573 0.07586715 0.07457605 -0.020569637 -0.05652329 -0.03526594 -0.044404488 -0.045467015
0.02455614 0.014649264 -0.008269025 0.01858604 -0.08134521 0.07854208 -0.038047075 -0.07850025
-0.021515943 0.02805545 -0.07886624 0.045565937 0.05570057 0.03968222 -0.06709244 -0.059231445
-0.056275148 0.04651872 -0.086009294 0.0637145 0.03955958 -0.039428476 -0.02784323 -0.06373186
0.06519506 0.00886736 -0.0297369 0.050980642 0.01721199 0.08217103 0.069143094 -0.010207235
0.031843778 0.020628044 0.06456202 0.04241088 0.011522791 0.05406446 -0.051924497 -0.060044497
0.019948803 -0.07252038 -0.067299515 0.02155497 -0.08712129 -0.07371592 0.05104224 -0.07112936
-0.010149146 -0.037770987 -0.008261337 0.05747601 -0.07950068 -0.04013013 -0.04801863 0.009636799
0.070633225 0.06962553 -0.052320976 -0.0580302 -0.044941064 0.020852348 0.08146842 0.04177321
0.0488252 -0.0079716565 -0.039922085 -0.06618124 -0.061408818 0.07844168 -0.05067667 0.07615228
-0.02043974 -0.082702465 0.021094056 -0.016790634 -0.08539119 -0.0064991293 -0.033961706 0.030849926
-0.06327529 0.0768048 0.02769292 -0.035520628 0.062211365 0.02720204 -0.027755834 0.07804069
0.0733508 -0.0036682293 -0.062334225 -0.07557976 -0.035377815 -0.05230797 -0.03357729 -0.0030085866
-0.015810855 0.06920803 0.04933791 0.07163389 -0.036509097 0.043914035 0.04157246 0.034595683
-0.0012890684 0.023202078 -0.0006677271 0.027723134 0.0225857 -0.035342693 -0.07406216 -0.039321594
0.054833453 0.03783174 -0.064331554 0.013518565 -0.0076552145 -0.07283765 0.012446227 0.043496676
-0.049706 0.051149365 -0.033435494 -0.03457655 0.009278706 0.057748374 -0.065093 -0.018063838
-0.008290729 0.006937158 -0.04231967 0.026696812 -0.062930726 0.054278016 -0.029231364 0.062012006
-0.08879059 -0.046166714 0.0036650142 0.04305858 -0.020872619 0.021961948 0.042230222 -0.045965597
0.02596982 -0.082076676 -0.08433128 -0.086179785 -0.024255658 -0.07611495 -0.020058107 -0.08880189
0.054151617 0.062481817 0.073000215 0.05950321 0.04716685 -0.02230114 -0.03008945 0.071219645
-0.037368063 -0.026424333 -0.07423044 -0.03406069 -0.047189027 -0.09611255 0.067483 -0.018570345
-0.07973816 -0.03431238 -0.04004421 0.041370973 -0.012194476 -0.014232318 0.020766035 -0.09121728
0.039578978 0.0075730276 -0.07301123 0.04840662 -0.06978631 0.04469976 -0.013802379 0.06838554
0.04169926 -0.09514322 -0.034035906 0.07286003 -0.052951388 0.06905527 0.04593787 0.04841791
0.052968465 -0.034718033 0.04589624 -0.04697404 -0.056525987 -0.033036493 -0.07772432 0.009320574
0.059130315 0.069731355 -0.080893576 -0.09560265 -0.07059186 -0.039413027 -0.051331595 -0.04939618
0.025784314 -0.07916683 -0.02304209 -0.03950204 0.01792755 0.02867645 0.049837396 -0.028305918
-0.09244817 -0.02379495 -0.022174688 -0.069293305 0.06781518 -0.007345076 0.060291156 0.0013151881

model.2.bias f4 [256]
00000000: f6f4 df3c 7f56 96bd b1df 333b 0c21 8a3d
00000010: 9308 c53c 1984 893d 610a 1abb 9d0a fd3c
00000020: 5b0c 043e 5b6c 6f3d 6cd3 073d a9bb 30bd
00000030: b4c5 e5bc 6f8b 333d 44b3 a5bd f728 22bd
00000040: 9906 763d e551 06bc 588d f63b f162 553d
00000050: 12eb f2bc db67 89bc 670c d4bb 8090 f9bb
00000060: d693 4dbd 8f45 fd3c 8327 9ebc c859 a73d
00000070: 8ac4 b2bc b6d2 a8bd 7866 32bb 9ec9 f03d
00000080: a0e3 ca3d e6ae b63d bcd2 5d3d 3806 833d
00000090: 0bc7 293c 6316 243c 99e1 c43d ac74 ef3d
000000a0: d362 e13d 6ec4 423c 0346 8c3d 7d69 2bbd
000000b0: 5540 173b 4907 133c de59 4b3d d937 59bc
000000c0: 2396 19bd 87c1 e13d bf51 ad3d 2ca7 64bd
000000d0: 1f80 68bd 905a bf3d fd04 80bd 4979 b43b
000000e0: 6bb2 513d bce9 b9bc 6cdd b43d 1bb4 39bc
000000f0: 3175 56bd fbeb b9bc 0b46 50bc 6296 bf3a
00000100: 0942 043e 3859 993d 230b a43d 930d e33d
00000110: ca30 2e3d f8b5 b2bd 61b1 cebc ca39 3c3b
00000120: 0ee1 2dbc 7814 653d 5b21 92bd 83ef 993b
00000130: 36ba 62bc 9c60 d73d f3bc 943d 87c2 ca3d
00000140: 604b 923d 6695 dc3a dbc9 fd3c 8ada 7cbc
00000150: 1925 d93c 546e 953d 1e88 9dbd 5339 80bd
00000160: 6432 d13d e3a2 87bd 1a0e 153d 00cc 9fbd
00000170: 724d 793d 06f6 f93c 2a2d e5bc 46a4 ac3d
00000180: 0d70 253d 2ce7 44bc 3285 e8bc 00b2 ba3c
00000190: 90a3 863b 152e dbbb 4760 d6bc 9b5b 01bd
000001a0: 49a7 7ebd 85bc f53d 77a1 da3c b8b2 71bd
000001b0: e54b 40bd 3349 d53c 8497 853d 349e 45bd
000001c0: bd21 d73c efb5 d5bc fccb 86bd 0481 5f3d
000001d0: afeb 8d3d 5b81 fc3c 67a8 303d ede8 d3bb
000001e0: 8663 e6bc e41b 5bbd 049d 243b c68b b4bc
000001f0: df01 97bc 0998 923d 12f0 26bd 2e42 6bbd
00000200: 8803 d83d e473 883d b997 2dbd 8618 c43c
00000210: f5ac 203d 5898 7a3d 5812 a0bd 2ac4 9e3b
00000220: 1d34 523d 36c0 4a3d ad66 8d3d d235 713d
00000230: 6019 a73c a243 9ebd ca63 9dbd 43cc 803c
00000240: 5e54 f53c 1154 de3d b821 773d 3ee5 1f3d
00000250: 3a3d b53c 2479 ab3d bc97 8e3b 0828 e73c
00000260: e290 883d ea28 f5bc 3e45 f93d 41c9 ac3d
00000270: 2526 8f3d d1b1 f03b 7cc1 053d 1ab4 c03d
00000280: d463 9d3d 30c0 fe3c 53a0 e7bc 0b29 b93c
00000290: ea8f adbd 02ca 83bd 426c 3f3b 247c 493d
000002a0: 2f7e 84bc 6f92 3abd 1819 4a3d 837f 7c3d
000002b0: d82c 1d3d 9ce9 85bd caaa 433d 4351 903d
000002c0: fdfc 71bd b58c 3fbc b395 64bb d6d3 013b
000002d0: 0bda b13d 335b 643d b3f6 4dbc bf4b afbd
000002e0: cc47 163c 7e00 90bb de27 95bd 26e4 1dbd
000002f0: b29c 94bd de94 ab3c d635 fa3d ce61 96bc
00000300: 2302 9f3d f069 22bd 4cd8 93bd 9482 c0bb
00000310: 27e4 eabc 180e a3bc 9bf6 923d a6ca c73c
00000320: 8b71 4f3c 7915 933d 8d69 6a3d 7796 5abc
00000330: 110f 0a3c 5fc6 0f3d ef2a 5f3d 77fa bfbd
00000340: fb0c 8cbd 7037 7abc 3b82 91bd befb 553d
00000350: f63b 2b3c 2fe6 013d 451f e73c 20c9 843b
00000360: 7444 98bd 3984 e73d 6526 743c f532 8d3d
00000370: f95f c23d dd4c 4abd 82dd de3b c807 b0bd
00000380: 2bec 973d f734 8c3d 4027 b3bd c943 31ba
00000390: 225f 6dbd 9aed 58bd 4030 6f3d 504d a73d
000003a0: 9fbb 74bd 5f74 26bd 4460 af3c 4f63 003d
000003b0: 91bd 91bd 02e1 163d 71a6 26bd 92b8 a7bd
000003c0: 599c 68bd da5a a8bd e082 07bd d54c 43bd
000003d0: 28b5 4d3d 879a 63bd 5bdf bdbd 4612 913c
000003e0: 3d36 f23d 2fc5 db3b 3907 583c eb62 503d
000003f0: dea5 713d 6e9e c7bc ce04 88bd 10b5 adbc
0.027338486 -0.073407166 0.0027446563 0.067445844 0.02405194 0.06714649 -0.0023504721 0.03088885
0.12895338 0.058452945 0.033160612 -0.043147717 -0.028048374 0.043834146 -0.08090833 -0.03958985
0.060064886 -0.008198236 0.0075241737 0.05209631 -0.029653106 -0.016773155 -0.006471205 -0.0076161027
-0.050189815 0.030916957 -0.01930595 0.08171421 -0.021822233 -0.08243315 -0.002722172 0.117572054
0.09906697 0.08920078 0.05415605 0.063976705 0.010362397 0.010015103 0.09613342 0.11692175
0.11005177 0.011887653 0.06849291 -0.04184865 0.0023079116 0.008973905 0.04964625 -0.013257944
-0.037496697 0.110232405 0.084628575 -0.05582349 -0.05676281 0.09343445 -0.062509514 0.0055076224
0.051195543 -0.022694461 0.08831295 -0.011334444 -0.052357856 -0.022695532 -0.012712012 0.0014616961
0.12915815 0.0748772 0.08009937 0.110865735 0.042526998 -0.08726114 -0.025231065 0.0028720968
-0.010612739 0.055927724 -0.07135268 0.0046977415 -0.013838341 0.10516474 0.07262602 0.099003844
0.07143283 0.0016829192 0.030980041 -0.015432963 0.026506947 0.07296434 -0.07691978 -0.06260934
0.102146894 -0.06622865 0.0363904 -0.07802582 0.060864873 0.03051282 -0.027975637 0.0842977
0.040390063 -0.012018006 -0.028383825 0.022789955 0.0041088536 -0.006688843 -0.026168955 -0.031581502
-0.062171254 0.11998848 0.02668832 -0.05900833 -0.04694738 0.02603588 0.0652304 -0.048246577
0.026261205 -0.02608773 -0.06581876 0.0545664 0.06929719 0.0308234 0.04312935 -0.006466976
-0.028123628 -0.053493395 0.0025118003 -0.022039305 -0.01843351 0.07157905 -0.040756293 -0.05743616
0.105475485 0.066627294 -0.042381022 0.023937475 0.039227445 0.061180443 -0.07815999 0.004845162
0.05131923 0.049499713 0.069043495 0.058889218 0.020397842 -0.07727744 -0.07685049 0.0157224
0.029947456 0.10855878 0.06033489 0.03903698 0.022123922 0.08372715 0.0043515842 0.02821733
0.06668259 -0.029926736 0.1217141 0.08436824 0.06989697 0.007345416 0.032655224 0.09409352
0.07685056 0.031097502 -0.02827469 0.022602579 -0.08474715 -0.06435014 0.0029208814 0.049190655
-0.01617345 -0.045549806 0.049340338 0.061645042 0.038372844 -0.06538698 0.0477703 0.070467494
-0.05907916 -0.011691262 -0.0034879267 0.0019810102 0.086841665 0.055751037 -0.012571025 -0.08559369
0.009172391 -0.00439459 -0.07282995 -0.038547657 -0.0725645 0.020945009 0.122173 -0.018357184
0.077640794 -0.03965181 -0.0721899 -0.005874941 -0.028673245 -0.019904181 0.071759425 0.024388622
0.012661348 0.0718183 0.057229567 -0.013341538 0.008426444 0.03510129 0.054484304 -0.09373944
-0.06838413 -0.015272006 -0.071049176 0.052242033 0.0104513075 0.03171366 0.028213153 0.0040522963
-0.074349314 0.11304516 0.014901732 0.06894485 0.094909616 -0.04938971 0.006801308 -0.08595234
0.07418092 0.0684604 -0.08747721 -0.0006762115 -0.057952054 -0.05296097 0.058395624 0.08169043
-0.059749242 -0.040638324 0.021408208 0.031344708 -0.07116235 0.036835678 -0.040686075 -0.08189501
-0.05678973 -0.082204536 -0.033083797 -0.047680695 0.050221592 -0.05556729 -0.09271117 0.017708909
0.118267514 0.0067068557 0.013185316 0.050875586 0.058996074 -0.024367537 -0.066415414 -0.021204501

model.4.weight f4 [784, 256]
00000000: 092c 8abd 688c 9dbd cd17 f4bb f526 52bc
00000010: e280 99bc dd31 2ebc 7e49 90bd 13de 5fbc
00000020: f294 8cbc 4a62 41bd 2513 e03b 3fbf 40bd
00000030: 1837 2d3d 399f 953c 88de 08bd 3fe4 10bc
00000040: 1b1e 9ebd 72c6 6cbd 8e22 45bd e66e 3abb
00000050: a93d 313a 462c b23b c271 16bc 6542 c63c
00000060: 1226 83bc af0c 19bd a5dc 4cbd 096b 73bb
00000070: 9003 2bbd 1f69 aa3c 7c72 383d 1a33 a0bd
00000080: 3be3 88bd 3dd8 4e3d d8f2 053d f76f c9bc
00000090: 6376 3abd 7a52 323d f64c 91bb a666 0c3d
000000a0: 4ab4 913c 353f dabc fdf0 3a3b e119 5bbd
000000b0: ccd7 b7bc efe2 f9bc 3900 0dbd cfb6 4bbd
000000c0: 035d ec3c f981 1abc 68d9 633c b7f7 633c
000000d0: c8aa f4bc 2248 f93c 90d2 0ebd 5ac0 183d
000000e0: db19 1abd 3882 8e3c 5fa9 83bd fa0a bcbc
000000f0: 7431 e5bc 2abf 72bc ed6c bcbc a142 feba
00000100: 1c20 653d 5095 13bd 8296 14bd d39d 44bd
00000110: 70e7 9bbc 2b89 1b3d 4475 a53c 60b8 123b
00000120: 70a1 083d dd00 833b 043c 88bd a8ec 97bd
00000130: df73 9c3d 9e3d 89bd 7141 173d 03a8 1abc
00000140: f3ba 103d 868f 5d3c 87e3 cf3b c761 663c
00000150: 2815 f03b b2fc be3c b814 87bd 68f7 193c
00000160: 21e6 9cbb cfe4 813c bb59 57bd c0ce c03c
00000170: 15a9 373d fbe3 8ebd 364b 5ebd 8579 a23a
00000180: 8183 823c f1e5 243d 22d4 993c 6049 6ebd
00000190: 243c bc3a a769 973b 87e5 a8bb 0fca dabc
000001a0: 78f9 10bd eb19 5abd 0487 4b3d 26f1 b8bb
000001b0: 9b0f a2bd e7db afbd 4d90 0cbd 7f73 66bd
000001c0: c725 15bb bb9e abbb ed75 a33b 3bfa a1bc
000001d0: 4dd9 62bb f4eb 633c 307f 583d ed88 84bd
000001e0: acf5 86bc 7e44 423b f946 87bd 88b7 14bd
000001f0: eb9b debc cf06 50bd 82ec fb3c 201d f4bc
00000200: dbb0 13bb 1668 6abc 6de3 f8bc 7056 a5bd
00000210: fefd 6abd 2e78 b4bd 4d7a 11bd 1828 763d
00000220: b144 90bc bc2e 47bd 4bc8 88bd 147d ab3c
00000230: 58bb 263d 43b3 083d 45c1 1e3d 37fa 9abd
00000240: 82cf 53bd 1cb6 c4bd 7aa2 e5bc d033 7ebd
00000250: 9ced 86bd 051c febc 1ca1 9f3c 87bb 81bd
00000260: ae6e 1dbd 0be0 64bd 99ea 9ebc 5038 353d
00000270: 3be8 4cbc 25d1 78bd c78e 623b f68b 8e3d
00000280: 59a6 3abd 4ffb a6bc e3cd a8bd 7578 60bd
00000290: fbc9 06bc 935b b9bc 5c27 45bc c584 37bd
000002a0: 7a9f 413c 1035 10bd a7e6 8abd 8485 7abd
000002b0: c337 c13c 9d2a 03bd 4a59 84bd d155 203b
000002c0: 26c3 283d 2359 b23c e31a 69bd 0698 313d
000002d0: 84de 463d bbf8 87bc d3e5 3dbd 0e64 7a3b
000002e0: 2c49 d1bd babe 95bd fef7 97bd a02d 4c3c
000002f0: cd72 c63c dda7 3cbd 9a36 91bc 1d81 743c
00000300: 890f 86bc 2306 efbc a799 473d e252 9abd
00000310: 45c9 49bd 78c5 f6bb de98 80bd bf45 27bd
00000320: 8216 bdbc 0f3f 2dbd c20c 683d fb57 81bc
00000330: 03d3 d7bc 16f9 2cbd 7f99 3abb 4b4d 203b
00000340: 8995 5cbc 40c4 bf3c 0357 2a3d 9adc c0bd
00000350: 8b9f 6cbc d4a8 bc3c cd05 44bd 27aa 283d
00000360: 0872 533d 35d7 a43c c9a2 583d 94b5 703b
00000370: b9e3 5abd 6f53 abbd 919d 9b3c 1587 b73c
00000380: 570a 893c 8ca2 523c 1b61 8ebd 6249 273c
00000390: 5059 88bd 5af8 76bd 959b a43c 8688 c2bc
000003a0: 54ac 34bd b67c f5bc 2656 493d 9488 e93c
000003b0: 318e 12bd 1072 06bd cd28 8cbd c6f1 7bbd
000003c0: 083d a1bc 0793 823c 31bc d03c bc03 86bc
000003d0: 2bab 283d c737 e5bc 2be5 4dbd 58f5 c23c
000003e0: 1152 933c 674b 89bc a9b0 223d 43fd adbc
000003f0: 34d7 983b dd3e c83c 15b2 53bd bb33 5ebc
-0.0674668 -0.07692796 -0.0074491263 -0.012826671 -0.018738214 -0.0106320055 -0.070452675 -0.013663786
-0.017160866 -0.047212876 0.0068382197 -0.047057386 0.04228887 0.0182644 -0.033415347 -0.008843481
-0.07720586 -0.05780644 -0.048128657 -0.0028447448 0.0006761202 0.0054374067 -0.009182395 0.024201581
-0.016009364 -0.03736561 -0.05001511 -0.0037142655 -0.041751444 0.020802079 0.045031056 -0.07822247
-0.06683966 0.05049919 0.032702297 -0.024589522 -0.04552306 0.043535687 -0.0044342233 0.03427758
0.017786164 -0.026641468 0.0028524988 -0.053491477 -0.022441767 -0.030503718 -0.03442404 -0.049734887
0.028852945 -0.009430402 0.013906814 0.01391404 -0.029866591 0.030429903 -0.034868777 0.037292816
-0.037622314 0.017396078 -0.06428789 -0.022954453 -0.027977683 -0.014816085 -0.023001159 -0.0019398519
0.055938825 -0.036031067 -0.036276348 -0.048002075 -0.019031256 0.03797261 0.020197518 0.0022387728
0.033357084 0.0039979056 -0.06652072 -0.074181855 0.07639288 -0.06701206 0.036927644 -0.009439471
0.03533454 0.013522988 0.006344262 0.014061398 0.007326741 0.023313854 -0.06595749 0.009397365
-0.0047881757 0.015856175 -0.052575808 0.023536086 0.044838984 -0.069770776 -0.054270945 0.0012395835
0.015931847 0.04025835 0.01877791 -0.058175445 0.0014361185 0.004620749 -0.005154315 -0.026707677
-0.035394162 -0.053247374 0.049689308 -0.0056439815 -0.07913133 -0.08586865 -0.034317303 -0.05626249
-0.0022758113 -0.005237428 0.004988423 -0.01977264 -0.0034614385 0.013911236 0.05285567 -0.06471429
-0.016474567 0.0029642875 -0.06605334 -0.03630784 -0.027173957 -0.050787743 0.030752424 -0.029799044
-0.0022535834 -0.014307043 -0.030381883 -0.08073127 -0.057371132 -0.08811985 -0.035517026 0.06009683
-0.01761088 -0.048628554 -0.06678828 0.020933665 0.04070601 0.033374082 0.038758535 -0.07567256
-0.051711567 -0.09605047 -0.028031576 -0.06206113 -0.06588289 -0.03101922 0.019486003 -0.06334596
-0.03843563 -0.055877727 -0.019398974 0.044243157 -0.01250654 -0.06074633 0.0034569965 0.06960289
-0.045568798 -0.020383505 -0.08242395 -0.054802377 -0.008226867 -0.022626674 -0.01203331 -0.044804353
0.011817807 -0.035206854 -0.06782275 -0.061162487 0.02358616 -0.03202306 -0.06462343 0.0024465213
0.041201733 0.02177102 -0.056910407 0.04335787 0.04855205 -0.016598096 -0.046361756 0.003820661
-0.102190346 -0.07311769 -0.07420348 0.01246205 0.024224663 -0.046058524 -0.017726231 0.014923361
-0.01636483 -0.02917773 0.04873052 -0.0753534 -0.04926421 -0.0075308643 -0.06279157 -0.040838
-0.023082022 -0.042296465 0.05665279 -0.015789023 -0.026345735 -0.042229734 -0.0028472838 0.0024460133
-0.013463386 0.023409009 0.041586887 -0.094170764 -0.014442335 0.023029722 -0.047857095 0.041177895
0.05162242 0.02012215 0.05288962 0.0036729323 -0.05343983 -0.08365523 0.018996032 0.02240328
0.016728563 0.012856137 -0.06952115 0.010210367 -0.0665766 -0.06029544 0.020093719 -0.02374674
-0.044109657 -0.029966693 0.049154423 0.028507508 -0.035780136 -0.032823622 -0.0684372 -0.06150987
-0.019682422 0.015939249 0.025480362 -0.016359203 0.041178863 -0.027980698 -0.05026738 0.02379863
0.017983468 -0.016759587 0.039719258 -0.021238929 0.004664326 0.024444038 -0.051683504 -0.013562138

model.4.bias f4 [784]
00000000: 3d2e 8dbd ee03 54bd f29a e4bc 1a50 b3bd
00000010: 60f0 2cbd 3228 18bd 510f d13b b31d 42bd
00000020: 6a76 003d 205c 4fbd 7b34 743c 7db1 933b
00000030: 3bed 413c e4f5 203b f461 3a3d 9ded fd3c
00000040: f047 8bbd 067d d03c 2f08 803c 9777 a7bd
00000050: a4ad 083d 97d9 82bd f208 113d d52e ad3c
00000060: 81bf 32bd 462b 473c b58b cb3c bf6d 47bd
00000070: d9b1 213d a510 923c 63ec fdbc 847a 84bd
00000080: 270b 9bbd 0e9d 8fbd 7ba3 513c cf5a 2d3c
00000090: 3e78 93bb 16a8 f0bc 0188 87bd 93ca 5dbb
000000a0: e05f 033d ae88 0abd 1ee4 9fbd 999d 42bd
000000b0: b44a 843c c0e5 bdbc 4163 16bb e9e4 95bd
000000c0: 5452 efbc 38cc 66bc 6af4 26bc 38ec 3bbd
000000d0: 6478 b6bc 462d 1ebd 5137 69bb 7581 e43c
000000e0: 316e cfbb 8aa7 3a3c c6cf cabc 16e4 82bd
000000f0: 0d26 813c 246b 5bbd dd39 7bbd c21a 33bd
00000100: 0603 d6bc 9f6f e73c 7381 a1bd 19ee d93c
00000110: 7093 88bd 3ebd d23c 0273 e3b9 e9a3 723c
00000120: 73b6 09bd 6c42 06bd 4ade ca3b 0a2b acbd
00000130: df16 9eba 6c9d 093d e729 8f3c f8bd 0a3c
00000140: 531e a1bd a390 4039 f2ed 09bd 600b 5bbd
00000150: ab26 76bd 0ddd 2d3c cf91 4dbd 2af1 9dbd
00000160: d641 933b eb9c 73bd 8ebc dfbc ebf7 363c
00000170: 4650 9fbd 0104 89bd e84f 94bd d605 393d
00000180: cd00 acbd 9b71 b7bc 42ad 69bd 2f55 423d
00000190: 49d6 a5bb 671f babb fa56 133d f8cf 4ebd
000001a0: 3117 e0bc 54ae e13a 07b9 5dbc f856 f6bc
000001b0: 56a0 09bd 90c0 aa3c 2f2a 4bbd cd54 4b3c
000001c0: b6a3 fc3a 5583 87bd 6536 e23c 3d91 a2bc
000001d0: 5202 f8bc 7fdf 043c ab29 8fbc 3017 33bd
000001e0: 9698 2ebc b220 34bd f96e 23bd bf2e a8bc
000001f0: 4b7d 4dbd 0911 21ba 9c37 98bd e992 c5bb
00000200: f1ef a83c fc9d 28bd f6fa 09bd 55be f7bb
00000210: 6cdf 7dbd 83ca 9bbd de16 38bd 8dd3 983c
00000220: 5827 abbd 1f68 80ba 7c97 46bd 12ba 8fbd
00000230: 243d 9d3c 7e55 a43b 5d30 853c 7319 b23c
00000240: a69a 9ebc f74b dc3c 6d18 40bd 9541 86bd
00000250: dd4a 30bd 7657 a9bc f8e2 b6bc ba73 9bba
00000260: 54db 133d 122f 88bc a1a5 e8bb dcb3 65bd
00000270: 0b91 c2bc f4a9 45bd 99d3 1ebd af31 c0bb
00000280: f18b 043d 3253 79bc 781a 8dbd 8472 583d
00000290: ec33 433c c19d e23c 8a31 1e3c cdd7 663c
000002a0: 01fa e1bc 4776 2dbc b3c8 103d 95c5 5ebd
000002b0: 3ecc acbd 70ae 4fbc 4979 1b3d 094c afbd
000002c0: fa8d 75bc efc0 2ebd 21cd 363d 008e 223c
000002d0: 6257 05bd 5bab 77bd 09d7 02bd ef48 683d
000002e0: 6b53 6dbd 4d2e 0cbd abcc 8abd 0449 11bd
000002f0: b203 35bd 78b3 923b 6179 88bd 5ed7 703c
00000300: 67cb 1a3d 286f 89bd ce51 1cbd 7d64 12bd
00000310: 6d05 9ebd e190 a2bc 27db 8abd f4bb 013c
00000320: 6db1 0ebc 3bbd acbc 4f19 92bb 7254 3e3c
00000330: 0489 17bc 3eb3 94bb 919e d0ba e923 41bd
00000340: 1417 8abd 1196 2a3d dc86 9f3c e9ab bf3c
00000350: e0c7 633c bb8a 713d df51 74bd 1d9e c43c
00000360: b7ba 9a3c c734 803c 9e17 4abd fd53 87bd
00000370: 2055 96bd 794d 11bd ddfe 333d 28af 283c
00000380: 75b8 92bd 8d2c 3abd 5372 69bd aef9 e33c
00000390: f931 b7bd 02b3 073d 0390 26bc 4859 21bd
000003a0: 6edd 053d 02dc 8ebd 45c6 133d 1969 af3c
000003b0: a8b5 00bd c410 5f3c 9ec8 46bd eaef 2f3d
000003c0: 2ede 0abd a6ff c3b9 e996 bcbc 4970 453c
000003d0: 90d4 edbc d621 c2bc edbb 3cbd 3885 90bd
000003e0: 9275 143d 1855 893c 0b9d 5abd 2294 1dbd
000003f0: eab1 9abd ba44 ce3c a770 9fbd 01d1 0d3d
-0.06893585 -0.05176156 -0.027905915 -0.087555125 -0.042221427 -0.03714771 0.0063799997 -0.047391605
0.03136293 -0.050624967 0.01490509 0.0045072422 0.011836345 0.0024560625 0.04550357 0.030997092
-0.0680083 0.02545024 0.015628902 -0.08177107 0.03336872 -0.06389158 0.03540892 0.021140495
-0.043639664 0.012156313 0.024846891 -0.048688646 0.03947625 0.017830202 -0.030996507 -0.064686805
-0.075704865 -0.07012378 0.012795324 0.0105807325 -0.004500418 -0.029377025 -0.066177376 -0.0033842667
0.032073855 -0.033821754 -0.07807182 -0.047513578 0.016148902 -0.023180842 -0.0022947344 -0.07319052
-0.029214062 -0.0140867755 -0.010190109 -0.045879573 -0.022274204 -0.038617395 -0.003558595 0.027893761
-0.0063302745 0.0113924835 -0.024757277 -0.0639116 0.015765214 -0.053568974 -0.06133448 -0.04372669
-0.026124489 0.028251467 -0.078860186 0.026602792 -0.066687465 0.025725003 -0.00043382501 0.014809587
-0.033621263 -0.03277819 0.0061910497 -0.084066465 -0.001206126 0.033597395 0.017476035 0.008468144
-0.07867112 0.00018364428 -0.033674188 -0.053477645 -0.06009547 0.010611785 -0.050187882 -0.07712014
0.0044939322 -0.05947582 -0.02731159 0.011167507 -0.07778983 -0.06690217 -0.072418034 0.04517158
-0.0839859 -0.022393038 -0.057049997 0.04744452 -0.005060945 -0.005680013 0.03597162 -0.050491303
-0.027354809 0.0017218092 -0.0135328835 -0.030070767 -0.033600174 0.020843774 -0.049600776 0.012410355
0.0019274864 -0.066168465 0.027613828 -0.019844646 -0.030274544 0.008109926 -0.017475924 -0.043723285
-0.0106564965 -0.043976493 -0.039900754 -0.020530103 -0.050168317 -0.0006144201 -0.07432482 -0.006029476
0.020622225 -0.04116629 -0.0336866 -0.007560531 -0.06198065 -0.076069854 -0.044943683 0.018655563
-0.083571136 -0.0009796656 -0.04848431 -0.07017912 0.019194193 0.0050150743 0.016258413 0.02174065
-0.019360851 0.026891692 -0.046898294 -0.065554775 -0.043040145 -0.020671587 -0.022325024 -0.0011860051
0.03609784 -0.016624007 -0.0070998226 -0.05607973 -0.023750803 -0.048257783 -0.038776014 -0.0058652977
0.03236002 -0.015217589 -0.06889814 0.052843586 0.011914235 0.027663114 0.009655366 0.014089537
-0.027585031 -0.010587282 0.03534765 -0.054387648 -0.084373936 -0.0126758665 0.037957463 -0.085594244
-0.014987463 -0.042664465 0.04462922 0.009921551 -0.032554038 -0.06046615 -0.031943355 0.05671018
-0.05794088 -0.034223843 -0.067773186 -0.035470024 -0.044192977 0.0044769607 -0.06663776 0.014699785
0.037791636 -0.067106545 -0.038163953 -0.035740364 -0.07715879 -0.019844474 -0.06780081 0.007918347
-0.008709294 -0.021086326 -0.0044585834 0.011616813 -0.009248976 -0.004537969 -0.0015916397 -0.047153387
-0.06742683 0.04164702 0.019473486 0.023397403 0.013902634 0.058970194 -0.05964839 0.024001176
0.01888786 0.015650166 -0.04933893 -0.06607816 -0.07340455 -0.035474274 0.04394423 0.010295667
-0.07164089 -0.045452643 -0.056993794 0.027829017 -0.089450784 0.0331297 -0.010166171 -0.039391786
0.032681875 -0.06975557 0.036077756 0.02141242 -0.03142324 0.013614837 -0.048531167 0.04295341
-0.033903293 -0.0003738377 -0.023021178 0.012050697 -0.029032022 -0.023697775 -0.046077657 -0.070566595
0.036244936 0.016764209 -0.053372424 -0.03847135 -0.07553466 0.025179256 -0.077851586 0.03462315
